model/model.pth (torch, 17216 bytes, 4 tensors)

linear1.weight f4 [256, 11]
00000000: 3787 023f 55d0 d0be 787a 83be 7a6a c93d
00000010: 9b88 dabc 14d4 0ebd 44e9 83bc 3306 07be
00000020: 0e2b 2dbe 8f8c fabd aa18 d33c c80b ffbe
00000030: f515 753d 914d db3d ebcd 013e 8283 12bf
00000040: 111a f53e 5ff9 d0bc ff1a c6bd 6da0 04bf
00000050: e0a6 88be ce95 03bf 2c4c 1b3f 442f 59bf
00000060: 76ae 103f 059f 36bc 60c2 4cbe f2dd 8b3e
00000070: 9a85 bc3e fd54 9a3e 291c 033f 54f1 ce3d
00000080: ccc4 58bd 0f1d e9be 3990 b53e ca3e 553f
00000090: 36fa 4c3e a40f af3e a89e dcbd e00a 22be
000000a0: 7ddc e63e bcad 113e b9b5 e8bd b4e3 243e
000000b0: 0b5d 883e 86a9 083e 8948 63bf e460 1fbf
000000c0: eaba 0fbd cedb bd3e 4a63 abbe fca8 de3e
000000d0: ff3c a4bd 6307 bdbe d519 c0be ab7d a83d
000000e0: 6f87 b0be aefe c13d 8e93 033e 8dbf b2be
000000f0: 74cd 2fbe 0878 903d 7093 c8be 7854 efbd
00000100: 61e0 833d cc1c 293c 7fed 88be 5a72 323f
00000110: dd35 3c3d df8f 4cbf 4ca3 4abd 18df c63e
00000120: ad54 373e f705 d5be d39c c8bd 43f5 fa3d
00000130: c200 dbbe fba2 163f e694 c33d f4ea 26bf
00000140: 3db2 ab3e d520 d83c d6d6 92be 94b8 283d
00000150: 6f94 95be c886 e4bd eba3 813d 45fc 363e
00000160: 8988 a63e 6049 e53e 8a36 2abf b44d 5fbb
00000170: 09c9 1f3d b9f0 683e ad64 fbbd 754a 053e
00000180: 80e0 4e3e b541 85bd 3e2e 27be 21d1 a4bd
00000190: a14b 343f 9fdd da3e 957e 19be 2aa9 2e3c
000001a0: d820 02bf 02b4 e03d 5672 153d 1843 b5be
000001b0: 2dd8 363e a183 943d 4014 fcbe 5e6d 813e
000001c0: 3fe4 d23e fdd5 c73e 83a3 a1be 9144 603e
000001d0: 9533 963e db4f 0dbd b3a5 e9be 6d4c 063e
000001e0: 11e0 9abe 7a23 99be f207 133e 1171 ef3e
000001f0: 6f78 26bf c0bf 103c 74b2 06bc 245c 0abf
00000200: 7aee a1bd fb7c a9be 3c1b 0dbf 7967 d0be
00000210: e9c2 243f 99fa 263f 0fdc d9bd e401 da3a
00000220: 231e 08bf 152d b2be 102b 8d3c c773 a8be
00000230: c2c4 373d 53bb 433e a054 a23e 8f1f b4be
00000240: b26e 263e 678e 1f3c 2bfd 19bd 2d97 0c3e
00000250: d982 0b3e 0236 5abe cecf 87be a9a3 073e
00000260: 6a13 85be 1b0a 95bd b884 4d3f 4793 03bf
00000270: 188d 0bbe df44 843e a816 623e 9033 4b3d
00000280: 98f1 b63e b46f 8c3d eabd 333d 5218 ef3d
00000290: 72f5 603c 353f 043f cfe9 2a3f 2a2b 203f
000002a0: 3349 c63c b95f 803e 50ac 9a3e a98b e8bb
000002b0: c5f6 b33e bd27 963d e310 8bbe d122 2bbe
000002c0: 0521 243f 67d5 f9be dd59 8fbd 2099 923d
000002d0: 5e50 923c 99e3 59bd 4179 38bb 31d7 803d
000002e0: bff2 033e b592 d2bc 3b30 46bc 8f3b 1f3f
000002f0: d84c 923e a2f9 02bf e187 9a3d e68e 7cbe
00000300: 8832 fcbd fa4c ccbd 32a7 9bbb e022 233e
00000310: 548e 0cbd 3752 c93d 6f6d 7fbd b930 1abf
00000320: e7db 393f 1edc 243e 1850 b13d 89e6 983e
00000330: 1095 5cbe 8a9b 66be ac40 82bd 2e01 603e
00000340: c028 48bc 16b7 90be 82ef a4bc 082f 46be
00000350: 4010 193f 233b 393f 9abe 61be c9f2 7d3e
00000360: 4dd5 3cbf dd64 99be 9b82 d13e 2430 2bbf
00000370: 2867 89be 87b1 14bf a712 593f a103 c13e
00000380: 6019 fd3d 4c3e 42bd bdd3 a83e e440 4dbd
00000390: 63d1 3cbe 0186 63be f3d8 9dbc b24c debc
000003a0: 798a 57bf 21a5 143e 7fc0 14bf 5afb 023d
000003b0: eea7 95be 70fc 303e 1dc6 cc3e 8ad8 98be
000003c0: 3f85 823e 9319 8fbe 206e 3d3f 5778 f03e
000003d0: 9cd4 033f c7cc 2fbe 2923 f3bd 29dc 0dbd
000003e0: 9a02 c3be ba3e db3e b6d1 c23d 9f25 dbbd
000003f0: 794d 9e3e 5796 a6bc 1176 413e 1b5a dabe
0.5098757 -0.40783945 -0.25679374 0.09834762 -0.026676467 -0.034870222 -0.01610244 -0.13185959
-0.16910955 -0.12233841 0.025768597 -0.49813676 0.059835393 0.10708154 0.12676208 -0.57231915
0.4787145 -0.025509534 -0.09673118 -0.5180729 -0.26689816 -0.5140046 0.60663104 -0.84837747
0.56516206 -0.011146312 -0.19996023 0.27317768 0.3682068 0.30142966 0.51214844 0.101046234
-0.052922055 -0.45529982 0.35461596 0.83298934 0.20017323 0.3419162 -0.10772449 -0.15824461
0.45090094 0.1422643 -0.11362786 0.16102487 0.26633486 0.13345918 -0.88782555 -0.6225722
-0.035090365 0.3708176 -0.3347419 0.434883 -0.080194466 -0.36919698 -0.37519708 0.08227094
-0.34478328 0.094724044 0.12849256 -0.34911767 -0.17168218 0.07054144 -0.39174986 -0.11686033
0.06439281 0.010321807 -0.26743695 0.69705737 0.045949806 -0.7990703 -0.04947214 0.38842082
0.17903395 -0.41606113 -0.09795537 0.12253811 -0.42774016 0.5884244 0.095498845 -0.6520226
0.33534423 0.026382843 -0.28679532 0.041191652 -0.29214808 -0.1115852 0.06330093 0.1786967
0.32526043 0.44782543 -0.6648947 -0.0034073414 0.03901008 0.22748078 -0.12275062 0.13016684
0.20202827 -0.06506673 -0.16326234 -0.08047701 0.704279 0.42747208 -0.14989693 0.010660449
-0.50831366 0.10971834 0.036485992 -0.3540275 0.17855902 0.07251669 -0.492342 0.25278753
0.41189763 0.39030448 -0.31570062 0.21901156 0.2933623 -0.034499984 -0.4563423 0.13115092
-0.30249074 -0.2990988 0.143585 0.4676595 -0.6502752 0.008834779 -0.0082212575 -0.54046845
-0.07906814 -0.33103165 -0.5511968 -0.40703943 0.6435991 0.6522613 -0.10637676 0.0016632644
-0.53170985 -0.3480002 0.017232448 -0.3290083 0.044865377 0.19114427 0.3170519 -0.35180327
0.16253164 0.009738541 -0.037594955 0.13729544 0.13624133 -0.21309665 -0.2652573 0.13246025
-0.25991374 -0.07277318 0.8028064 -0.513966 -0.13628042 0.25833794 0.22078955 0.04960972
0.35731196 0.06857243 0.043882288 0.116745606 0.013730394 0.51658946 0.66763014 0.62565863
0.024204826 0.2507303 0.3020959 -0.007096727 0.35149208 0.07331798 -0.2716132 -0.167125
0.64112884 -0.48795626 -0.06999562 0.071581125 0.017860588 -0.05319557 -0.0028148445 0.062910445
0.12885569 -0.025704721 -0.01209646 0.62200254 0.28574252 -0.5116216 0.07545448 -0.24663886
-0.123143256 -0.099756196 -0.004750156 0.15931273 -0.034315422 0.09830134 -0.062360223 -0.60230595
0.7260117 0.16099593 0.08657855 0.29863384 -0.21541238 -0.22520271 -0.063599914 0.2187545
-0.012216747 -0.28264683 -0.020133737 -0.19353878 0.5979042 0.7235586 -0.22045365 0.24799646
-0.7376297 -0.29959765 0.40919957 -0.6687033 -0.26836514 -0.58083385 0.84794086 0.3769808
0.123583555 -0.047422692 0.32974043 -0.050110713 -0.1843925 -0.22219087 -0.019268489 -0.02713618
-0.8419567 0.14516117 -0.58106226 0.03197799 -0.29229683 0.17283797 0.39994898 -0.29852706
0.25492284 -0.279492 0.7399616 0.46966812 0.5149629 -0.1716796 -0.11871941 -0.03463379
-0.38087922 0.42821294 0.095126554 -0.10700535 0.30918482 -0.02033536 0.18892695 -0.4264687

linear1.bias f4 [256]
00000000: 0ddd f4bd af4a cd3e 84b0 e2be c47d 3fbe
00000010: 0bc9 d73d 337f c7be 4f61 073d c3e1 3c3c
00000020: 2591 f7bd 739a 94bd 338e 453e 97be 4bbc
00000030: 68f7 debd 0cc7 983c a87a ecbe 4693 8bbe
00000040: 23d1 00be c3a8 6cbe 0d13 afbe 7ff8 56be
00000050: 0dbc 033d ec4c edbd 7a01 383d 37b1 eebe
00000060: 3fe1 efbe a4be b6b9 5a3e adbe c4e2 d43a
00000070: 36d5 cabd d544 90be e640 4e3d 72df 01be
00000080: 8354 1bbe 5ae4 a5bc b992 90be e5e5 a7be
00000090: 688d 0abe 447b 043d 81d4 0dbd 4f4f b6be
000000a0: d5a2 9fbe cc8e bbbe 9e33 06be 7885 003f
000000b0: 3c0e 1e3e bcbc 49be f164 32bd 8162 7cbe
000000c0: ae8d ef3d 1561 b1be b2d9 88be 6f22 efbd
000000d0: 07cc 6abe 9731 91be 7c9b 2bbe 0f36 07be
000000e0: af29 34be 3929 b1bd ffc0 383d f8a7 aebd
000000f0: 0016 44be 28a4 6a3d 3a17 e53d 603b 28be
00000100: 21ad 85be f494 03be 00a1 fdbd 3bdd c33b
00000110: 8d1b 22be 2b96 e0bd 7a9b a4be c8d6 b53d
00000120: 87f0 6dbd b012 1fbe 4bfe 873e 8c45 8a3e
00000130: a7fd 44be e986 943d 83eb 50be cf58 64be
00000140: b174 2dbe 8230 a7bd fd02 fd3b 068c 843c
00000150: c0e7 87be 8589 bc3e 806e 623c 1f89 d83a
00000160: b1b1 9abe cdd5 25be 5474 a9be 9127 f7bd
00000170: dbd8 523e 3a90 093c 7f44 afbe 5a56 c0bd
00000180: af5a 96be b0bd 003e 2878 9dbe ba9b 2c3e
00000190: 0dd3 f33c b0d6 b6be 8faa 22be 72c6 b13b
000001a0: 4420 2dbc 677d b4be eb7b 65be a358 7dbe
000001b0: 289a babd c468 8abe 5fb7 83be ab23 3ebe
000001c0: 470b 243e 15ec 783e e189 cfbd 9dcf f8be
000001d0: 8628 123d 20fb 40be a027 5cbd d0ea e23e
000001e0: cea9 85bc 7c7a 1bbe 4dc3 bc3e b940 efbd
000001f0: 2a52 f1bd 374c 423c 8f55 bcbc a1d8 f5be
00000200: 3475 323e 1781 b83d db47 abbe 3b2e 5abe
00000210: f877 d4be c46d 363e 6f8a e33d 29d4 213e
00000220: af4d f33d ebaf 823d 2d0b 00bd e3ce 3cbe
00000230: 6d35 4abe 9280 92be 92ce 80be 6cb8 fa3d
00000240: 2046 ecbc 6d9f b5bd c0f6 bebd 2a22 ae3b
00000250: 326d e7be a861 0cbe ec56 9fbe b6c7 803e
00000260: 7ea9 0f3e fbb8 2bbd c13b 1abe a042 fabd
00000270: 1754 9d3c 61a4 14bc bea0 25be 24c1 64bd
00000280: 9216 e2bd 0f9e 113f 55d0 cabd 8285 8dbe
00000290: f459 073d a48a a9be d6c2 00be c3b9 8fbe
000002a0: 3e8e 833e 6ca5 24bd a6ae 25bc d1b6 653e
000002b0: d476 a8be 0c5a 4abe 8299 33be 4c20 59bd
000002c0: 3efe 7fba 4885 25be 920f 6ebc c72d bf3d
000002d0: edbc af3e 00b7 82be 8962 67be ba0c 2d3c
000002e0: 19a5 3d3e a8ab abbe bdcf a03e 0e44 41be
000002f0: d441 83be 4e25 e2be f50a 113f fd0d 7bbe
00000300: e94b 9fbe eff3 e83b 479a e3be d7e8 3ebe
00000310: b178 113e 4914 883d 2e1a 50be 4471 83bc
00000320: dbf9 c13d afcc 1fbe 9a6f 09be b3f2 fe3d
00000330: 6299 0e3d ae9a 873e 946c a83c 919c d53e
00000340: b5f3 e1bd 666f a2be 8428 dabd 8c60 573e
00000350: f1cb 2abd ab97 ba3e 9709 c0bd 2232 96be
00000360: 47b0 acbe a801 5c3e 0beb fe3d 5a3b 1cbd
00000370: 543b 203e e888 afbe 6656 a5be 32ae f93d
00000380: 12ad 533e 2372 c7be 743d 03be 6efd febd
00000390: a87e cdbe 4ffa 39be 7678 83bb 4ef2 e5be
000003a0: c5b3 533e 05db d93d 22e8 fb3e c90f 193e
000003b0: 050e cebe ef36 de3e 3c0f 653e ab06 cb3e
000003c0: 526a bebe 0e06 103e a406 cdbd 745c c3be
000003d0: 5460 a4be ae37 9e3e f49b 433e 9001 913d
000003e0: a528 32be 1160 cabe a038 e23d 8bf7 d43d
000003f0: d417 de3e c9af 363e 9c41 af3e 4bc9 7c3d
-0.119562246 0.40096042 -0.44275296 -0.1870032 0.10536393 -0.38964233 0.033051785 0.011528435
-0.12088231 -0.07256021 0.19292526 -0.012435577 -0.10887033 0.0186496 -0.4618733 -0.27260798
-0.1257978 -0.23111252 -0.34194222 -0.20993231 0.03216176 -0.11586937 0.044923283 -0.4661958
-0.46851537 -0.00034855783 -0.33836633 0.0016241898 -0.09903948 -0.28177515 0.05035486 -0.12682894
-0.15168957 -0.020250488 -0.2823694 -0.32792583 -0.13530505 0.032344118 -0.034626488 -0.35607383
-0.31178918 -0.36632383 -0.13105628 0.5020366 0.15435117 -0.19700903 -0.043553296 -0.24646951
0.11696945 -0.3464438 -0.26728588 -0.116764896 -0.22929393 -0.28358147 -0.16758531 -0.13204215
-0.17594026 -0.08650441 0.04510593 -0.08528131 -0.19149017 0.057285458 0.11186071 -0.164289
-0.2610865 -0.1284979 -0.12384224 0.0059773005 -0.15830822 -0.10966142 -0.3214987 0.08878857
-0.058090713 -0.15534472 0.26561198 0.27006185 -0.19237386 0.072522946 -0.2040234 -0.22299503
-0.16939045 -0.08163549 0.0077213035 0.01618005 -0.26544 0.3682367 0.013820291 0.0016520357
-0.30213693 -0.1619484 -0.33096564 -0.120680936 0.20590536 0.008396203 -0.34231946 -0.0939147
-0.2936606 0.1257236 -0.30755734 0.1685628 0.029763723 -0.3571067 -0.15885375 0.005425268
-0.010566775 -0.35251924 -0.22410552 -0.24740843 -0.09111434 -0.27033055 -0.2572584 -0.18568294
0.16019927 0.24308808 -0.1013372 -0.48595896 0.035683177 -0.18845797 -0.053748727 0.44319773
-0.01631632 -0.15183443 0.36867753 -0.11682267 -0.1178325 0.011858991 -0.022990016 -0.48016837
0.17427522 0.09008997 -0.3345326 -0.21306698 -0.4149778 0.1781531 0.111103885 0.15803589
0.11880051 0.0638121 -0.031260658 -0.18438296 -0.19746943 -0.28613716 -0.251576 0.12242207
-0.028842032 -0.08868299 -0.093244076 0.0053141313 -0.45200497 -0.13709128 -0.31121004 0.25152367
0.140295 -0.041924458 -0.15061857 -0.12219739 0.019205136 -0.009072394 -0.161746 -0.055848256
-0.11039461 0.56881803 -0.099030174 -0.2764092 0.03304477 -0.33113587 -0.12574324 -0.28071412
0.2569446 -0.04019682 -0.01011244 0.2243302 -0.3290316 -0.19760913 -0.17539027 -0.053009316
-0.0009765363 -0.16164124 -0.014530079 0.09334903 0.34323826 -0.25530243 -0.22596182 0.010562116
0.18520011 -0.335294 0.31408492 -0.18873617 -0.2563616 -0.44169086 0.56657344 -0.24517055
-0.31112602 0.0071091573 -0.44453642 -0.18643509 0.14206196 0.06644494 -0.20322487 -0.01604522
0.09471484 -0.15605424 -0.13421479 0.12448635 0.034814246 0.264852 0.020559587 0.41721013
-0.110328116 -0.31725615 -0.10652259 0.21032923 -0.0416984 0.36443838 -0.09376829 -0.29335123
-0.3372824 0.21485007 0.12447175 -0.03814254 0.15647632 -0.3428414 -0.3229248 0.12191428
0.2067149 -0.38954267 -0.12816411 -0.124506816 -0.40135694 -0.18161891 -0.004012163 -0.44911426
0.20674045 0.10637478 0.4920054 0.14947428 -0.4024507 0.43401286 0.22369093 0.39653525
-0.3719049 0.1406481 -0.10011032 -0.38156474 -0.32104743 0.30901855 0.1910246 0.07080376
-0.17398317 -0.39526418 0.110459566 0.103987776 0.43377554 0.17840494 0.34229743 0.061715405

linear2.weight f4 [3, 256]
00000000: 18d7 d93a 6857 8b3e 3cb4 76be 4bbe ff3d
00000010: 09b0 05bf 4102 50bd 96c7 833e c989 2d3c
00000020: 0b69 053d 3c61 10ba 2919 933e ffb2 733e
00000030: 1f3a 13be b271 0dbe 986c bebd d5e7 28bd
00000040: a171 2fbd fd97 1dbd 64b0 343e 5649 22bf
00000050: d043 4a3e 19cd 91be 8012 c2bd b29b f8bd
00000060: 63cf b6bc 1ed8 4fbf 5e24 9ebe b54a aabd
00000070: 26ac 2cbe 5079 f73b eb0c 80bc 8439 d83b
00000080: 14ac 6e3e d14a 953e 8250 dcbd c196 9abd
00000090: 9c0f 1dbe ab08 13bb 779d e4bd 2dbf 7abe
000000a0: 4515 503d 667a c6ba cadc c33d 65b3 4c3e
000000b0: 25db d83e 0e44 c2bd c55e c53b 6273 3ebd
000000c0: 0788 29bf 58ac a0be cf01 563e 38d9 073e
000000d0: b2c6 5b3d 4682 093f 5488 f4bd 6722 1d3d
000000e0: 4637 723d b731 82be 9b29 a9bd 0ed6 13be
000000f0: 6288 ea3b 2371 86bf f94a db3d 3c14 0abe
00000100: 97aa bbbe fedd dc3b 98b7 f5bc 8b0c a5bd
00000110: 96e9 c1bd a2e5 1bbd b579 f0bd c1e5 51bc
00000120: 8565 0ebc 72de 9ebd 04fe 363e c0b4 65bf
00000130: e48f 18be 10a7 c8ba f1d1 83bd 045b 82be
00000140: 1d28 1a3b 74a2 89bc 68fe b73e 9eda b9bc
00000150: b926 6c3b 2e48 113f 0b8c 8bbd 58e7 bf3d
00000160: d993 85be 5eeb b3bc 87df 04bd a1ac f8bb
00000170: e6f1 0bbe c576 883e 2d16 cfbe d6e6 9d3e
00000180: 6470 b0bc 5526 283f ce4e 0b3d 11d9 5fbd
00000190: 7cbc 10bf 2710 f53d 6243 5d3e ebbc 923e
000001a0: 358f 783c a1e6 3abe 62bd 51be fb17 6abe
000001b0: 2853 053e 8ebe 5ebf 4b4c 2cbe 6a49 52bd
000001c0: e81a 733d 0b5d 20bf 12fc c1bc 585a 75be
000001d0: 2e60 60bd 6ba9 b7bd 3dd6 4d3c afd6 c73e
000001e0: c549 923d 9fd2 c9be 1fe7 023f be29 d53b
000001f0: b66e 2cbc c731 03bd b5c9 083e 5fc1 833e
00000200: 0ae2 ad3e 9061 003e 27d7 1e3d 5278 f2bd
00000210: 1b41 6abc c834 73be 40a9 2bbe a420 773c
00000220: 91aa 663c 7a28 a33e 3c2d 823e a30d 2dbd
00000230: f7be 7ebd d8b9 083c 4b27 23bd ff7f 6c3c
00000240: 6eec a9bc ad76 84bc 6d59 463d 7a2b 853d
00000250: 5857 8cbe 2250 aebd d93a cd3d 907d 013e
00000260: 79c8 d1be d17f 523e 4589 87bc ed47 413d
00000270: 2cbc fdbe ab25 b0bd a166 16bc 2614 903a
00000280: 60a1 63be 7652 653e 3c9e dc3d 8c11 78bd
00000290: 31f1 2dbe 57dc 29bf 1912 4fbe 61ca 59be
000002a0: 9215 c63c 6017 65bd 20c3 3f3d 5ee1 0dbf
000002b0: 0413 0ebf 1813 afbe ecb5 5abe c097 383f
000002c0: 2880 493a 6c33 c6bd d0c8 97be 875a 3a3f
000002d0: ffc2 333e 1778 ccbb f0ab 96bb 5183 5d3e
000002e0: cf83 f83d 77f1 3fbd 483e c63e 8a0c 8fbd
000002f0: d7b4 8abd 3685 34be a317 433e 53a8 a6bc
00000300: 93cc 053c c45b 1d3e e5ab 9cbc 0f24 33be
00000310: caa7 10bc 06ab 06be dc74 043e d762 903e
00000320: 53e7 9ebd ce7b 68be f150 19bd c612 b83d
00000330: 35ea f93d c1d2 a93e 4802 d5be c62f 0a3e
00000340: 4002 a3be 33f8 073c c10f 1cbe 0d63 083f
00000350: e25c a9be c0e3 b53d fa16 23bf bcbc 553d
00000360: 119b 6cbd 2486 2c3d ac9e be3e 00c6 fc3c
00000370: b1d5 a03e 856b 1bbd 63e3 e63b 110c fe3e
00000380: 18c9 02bf d352 293c 22e1 75bf 4b7a 053e
00000390: 046a 2dbe aebe e1be 406a 55be 1c6e 2f3d
000003a0: f82d 71bf 0668 13bc d881 f43e 525c cf3e
000003b0: d63a dd3d 67b0 be3e 1b8c f53d 882f 8f3e
000003c0: f4dc cdbd 820e af3e 25ce d1bc be09 20bf
000003d0: 92a8 78bb be1e f5be 8362 c3be 050a 313d
000003e0: f44c 8ebd 0760 1abc d554 6a3e 8670 383d
000003f0: b14c fb3e c8bd ca3e ddd2 163e aefc 353e
0.0016619889 0.27215123 -0.24092191 0.124874674 -0.52221733 -0.0507834 0.2573821 0.010591933
0.03257088 -0.0005507653 0.28730133 0.2379875 -0.1437764 -0.13812903 -0.09298056 -0.041236717
-0.042832974 -0.038475025 0.17645413 -0.6339315 0.19752431 -0.2847679 -0.09476185 -0.121390715
-0.022315687 -0.81189144 -0.3088712 -0.083150305 -0.16862544 0.0075523034 -0.01563116 0.0065986533
0.2330783 0.29158643 -0.10757543 -0.07548285 -0.15337986 -0.0022435586 -0.111628465 -0.2448699
0.050801534 -0.0015142679 0.095635965 0.19990309 0.42354694 -0.09485637 0.0060232603 -0.046496756
-0.66223186 -0.31381488 0.20899127 0.13266456 0.053656287 0.53714406 -0.11940065 0.038362887
0.059134744 -0.25428554 -0.08259889 -0.14437124 0.0071573714 -1.0503277 0.10707659 -0.13484281
-0.36653587 0.0067403307 -0.02999477 -0.08059033 -0.09468381 -0.03806079 -0.11741964 -0.012811125
-0.008691196 -0.07757272 0.17870337 -0.8972893 -0.1489864 -0.0015308578 -0.064365275 -0.25460064
0.0023522445 -0.016801096 0.35936284 -0.022687253 0.0036033823 0.5675076 -0.068138205 0.09370297
-0.2608936 -0.021962818 -0.032439735 -0.0075889383 -0.13666496 0.26653114 -0.40446606 0.30840176
-0.021537967 0.6568349 0.0340107 -0.05465037 -0.56537604 0.119659714 0.21607736 0.28659758
0.015170862 -0.1825204 -0.204824 -0.2286071 0.13020003 -0.87009513 -0.16825978 -0.051339544
0.05935183 -0.6264197 -0.023679767 -0.23960245 -0.054779224 -0.08967861 0.012563285 0.39030978
0.07142977 -0.39418504 0.5113391 0.00650522 -0.010524442 -0.032029893 0.13358195 0.25733468
0.33961517 0.12537217 0.038779404 -0.118393555 -0.014297749 -0.23750603 -0.16763783 0.015083466
0.014078752 0.3186682 0.25425136 -0.042249333 -0.062193837 0.00834509 -0.039832395 0.0144348135
-0.020742621 -0.01616987 0.048425127 0.06502433 -0.27410388 -0.08511378 0.1002099 0.12645555
-0.4097326 0.2055657 -0.016544947 0.047187734 -0.49557626 -0.086009346 -0.009179742 0.0010992333
-0.22229528 0.22394738 0.10772368 -0.06056361 -0.16986538 -0.66351837 -0.20221747 -0.21268608
0.024180207 -0.055930495 0.046816945 -0.5542201 -0.55497766 -0.34194255 -0.2135846 0.7210655
0.0007686638 -0.09677777 -0.29645395 0.72794384 0.17554854 -0.0062399018 -0.0045981333 0.21632124
0.121345155 -0.04686114 0.38719392 -0.069848135 -0.06772774 -0.17628941 0.19051985 -0.020343935
0.00816645 0.15367037 -0.019124934 -0.17494224 -0.0088290665 -0.13151178 0.12935203 0.2820041
-0.07758965 -0.22703478 -0.037430707 0.08987956 0.122028746 0.33168605 -0.41603303 0.13494787
-0.31837654 0.008298921 -0.15240385 0.5327614 -0.33078676 0.088813305 -0.63706934 0.052181944
-0.05776507 0.042120114 0.37230432 0.030856133 0.31413034 -0.037944335 0.0070461496 0.4961858
-0.51088095 0.010334688 -0.9604665 0.13034932 -0.16934973 -0.4409079 -0.20841312 0.042829618
-0.9421077 -0.008996969 0.47755313 0.40500122 0.10802238 0.3724396 0.119896136 0.2796595
-0.10051909 0.34190756 -0.025610993 -0.62514865 -0.0037942273 -0.47875017 -0.38161096 0.043222446
-0.069482714 -0.009422309 0.22883923 0.045029186 0.49081948 0.39597917 0.14728875 0.17772171

linear2.bias f4 [3]
00000000: 5b25 973e 95f6 12be a7b3 f1bc
0.29520687 -0.14351876 -0.02950461
