model/model.pth (torch, 17216 bytes, 4 tensors)

linear1.weight f4 [256, 11]
000000 34 c5 15 3f 05 65 1c bf a3 2b 70 3f cd 7c 65 be
       0.58504033 -0.61091644 0.93816584 -0.22410889
000010 3c df e8 bd 47 35 e3 bd e0 b2 8a 3e ab a5 c5 3e
       -0.113707036 -0.11094146 0.27089596 0.38602957
000020 ba 2e a9 3e 8d f9 c3 3e f6 21 4b 3d 10 aa a5 bd
       0.33043462 0.3827633 0.049592935 -0.080890775
000030 2a c7 e5 be 56 45 17 3d c8 25 c7 bd 67 f9 33 bf
       -0.44878513 0.03693136 -0.09724003 -0.7030243
000040 5d c5 13 3f 44 57 85 bd 3b 46 a3 3e b8 a1 cc 3e
       0.5772303 -0.06510785 0.3188952 0.39967132
000050 b9 32 00 bf a6 d6 cd 3e 89 c0 8c be c7 bd 50 3d
       -0.50077397 0.40202826 -0.27490643 0.050962236
000060 dd 05 68 3e 46 fc 96 bd a4 2c a1 bd 7b a6 8a bc
       0.22658487 -0.07372336 -0.07869843 -0.016925087
000070 07 48 4c be 93 1d 7e 3d a8 1b 43 3e ec 82 bf be
       -0.19949351 0.062039923 0.19053519 -0.37404573
000080 3c 49 66 be fc 51 7e be 60 47 70 be 60 7a a7 3d
       -0.22488874 -0.24835962 -0.23464727 0.08177638
000090 4f 1e ad be 0e 2c dd be bb 59 f8 be a7 2d 02 3f
       -0.33812186 -0.43197674 -0.4850596 0.5085091
0000a0 c2 9f 79 bf 39 b5 a1 be 69 a8 66 bf 1b fe d8 be
       -0.97509396 -0.31583574 -0.90100724 -0.42381367
0000b0 d7 14 cd 3d dc e6 eb 3e bc 45 78 bf 90 7c 8d 3e
       0.100137405 0.4607457 -0.96981406 0.27634096
0000c0 f9 32 67 3e 07 e1 1c 3e 1e e2 09 3e 17 e5 80 be
       0.22578038 0.15320216 0.13465163 -0.25174782
0000d0 2a 82 60 be c9 ef fc bc 78 57 3f 3e f1 ba 4a 3f
       -0.21924654 -0.030876057 0.1868571 0.791915
0000e0 c9 13 21 be 18 1d 85 3f b4 b3 39 3e f7 50 de bd
       -0.15730204 1.0399504 0.18134958 -0.108552866
0000f0 e3 e5 d5 3e 8f 37 3a be f2 ad c8 3b f8 96 de 3e
       0.41776952 -0.18185256 0.0061242515 0.43474555
000100 e9 63 34 be f2 41 a1 3d 45 d9 f2 3e e4 6c d4 3c
       -0.17616238 0.07873906 0.47431388 0.02593083
000110 7b 28 7e be 9a 5b b9 be 77 46 f9 bd 8e 90 70 3e
       -0.2482013 -0.362027 -0.12171643 0.23492643
000120 0b 58 3d be a5 5f 3d 3e 75 93 3b be fc 13 3f be
       -0.18490617 0.18493517 -0.18317969 -0.18659967
000130 57 8b e9 bd 66 7f 4c bd 8c 68 06 bf 50 e5 49 3f
       -0.1140353 -0.049926184 -0.52503276 0.7886553
000140 7c 8a 3b 3e 94 41 80 3e 7f df 73 3e b7 4e ed 3d
       0.18314546 0.25050032 0.23815726 0.11587279
000150 38 3f ba bd 66 58 4f 3e 0b 08 b5 bd 38 a2 54 be
       -0.09094089 0.20248565 -0.08839425 -0.20765007
000160 be 0e 77 3d 79 d2 02 bf eb 63 82 bd 56 00 4c 3e
       0.060316794 -0.51102406 -0.06366714 0.19922003
000170 c5 9f b1 3e 0e fc 9d be fa 76 f6 3d 77 20 cd be
       0.34692207 -0.30856365 0.12034412 -0.4006383
000180 47 fe c7 3d 78 82 2e 3f 07 d7 77 3e 19 ac e7 be
       0.097652964 0.6816783 0.2420312 -0.45248488
000190 81 16 26 3f d1 12 b8 3e 4e 27 06 be ba 61 1f be
       0.6487809 0.35951856 -0.13100931 -0.15564623
0001a0 53 08 9d 3e 83 78 0f 3e 83 e8 62 be 05 03 9a bd
       0.30670413 0.14010815 -0.22159009 -0.07520107
0001b0 77 10 2a be c6 0a 05 bf d0 99 d8 be 90 a4 ca 3e
       -0.16607843 -0.51969564 -0.4230485 0.39578676
0001c0 21 10 8b 3e 85 f1 da be d8 a8 f8 bd 5f 08 be 3e
       0.27160743 -0.4276239 -0.121415794 0.37115762
0001d0 50 2f b3 3e a5 12 29 bf 31 fd 15 bf 13 18 86 3e
       0.34997034 -0.66044074 -0.58589464 0.26190242
0001e0 3e 3c 1e bf 4a 31 8d be ec 39 02 bf 03 8f 45 3f
       -0.6181067 -0.27576667 -0.5086963 0.77171344
0001f0 47 ab 7b 3e 71 47 42 be 57 72 5d 3d 70 d0 87 3e
       0.24577056 -0.18972565 0.05406412 0.26526213
000200 76 29 69 3d b1 2a c9 be ca b6 88 3e e2 66 76 be
       0.056924306 -0.39290383 0.26701957 -0.24062684
000210 87 8f 8b be 83 75 19 be 65 c7 22 3d 2b 86 c8 3e
       -0.2725794 -0.14986233 0.03974094 0.39164862
000220 6c c1 88 be b4 04 86 bc 8e 09 88 3d 02 0a dd be
       -0.2671007 -0.016359664 0.066424474 -0.43171698
000230 6b a2 77 bb 6e db b9 be 57 3b b8 be e4 62 4e bd
       -0.0037786018 -0.36300224 -0.35982773 -0.05038728
000240 9a 0b ae 3d 52 83 5d be c1 1a 6c bd 59 17 b8 3d
       0.084983066 -0.21632126 -0.057642702 0.08988828
000250 cb ca 37 bd 1b ff 67 bd 5a a7 6f be d2 4e 50 bc
       -0.044871133 -0.056639772 -0.23403683 -0.012714105
000260 5c 55 17 be b3 00 3f be 09 78 16 3d c2 8b f3 bc
       -0.14778656 -0.1865261 0.03673557 -0.029729728
000270 87 45 2c bf 97 6e f2 3e 96 10 93 3d 86 61 70 3e
       -0.6729359 0.47349998 0.07180898 0.23474702
000280 30 35 a0 b9 cf 0a d2 be 1b 2e 04 bf 40 a4 59 3e
       -0.00030557206 -0.4102387 -0.5163285 0.21254063
000290 7e 4e 21 be 3e cf 8f bc 81 b8 fa be 88 92 4d 3f
       -0.15752599 -0.017554875 -0.4896889 0.80301714
0002a0 a8 5e 9d bd 1a 94 34 3e 37 78 02 3d 0b f9 8d bc
       -0.0768407 0.17634621 0.031852927 -0.017330667
0002b0 e1 57 2a be d9 33 75 3d 06 79 95 be c3 62 87 bd
       -0.16635086 0.0598639 -0.29193896 -0.06610634
0002c0 5c b8 13 3f 3b f8 5a bd 92 b0 61 bf c8 66 a2 be
       0.57703185 -0.053459387 -0.8816005 -0.3171904
0002d0 3c ad f9 be 38 7a 00 3e 74 f4 a9 3e 0a ca eb 3e
       -0.4876498 0.12546623 0.33194315 0.4605258
0002e0 d5 1b 76 3e 57 40 26 3e 71 3c 89 3e 68 8a 8e be
       0.24034055 0.16235481 0.26803926 -0.2783997
0002f0 03 f1 16 bf a9 a3 75 3e a5 18 81 bc 7c a5 85 be
       -0.58961505 0.23988213 -0.015758822 -0.26102817
000300 e3 01 95 be 1d 7c a9 3e c9 cb 2a 3e e6 5a 78 be
       -0.29103002 0.33102503 0.166793 -0.24253425
000310 d5 45 ab 3c 57 92 03 bc d9 4f 18 3d 3c 36 36 bf
       0.020907322 -0.008030496 0.037185524 -0.71176505
000320 94 52 cb 3e 13 bf 00 3e 3e 3b c0 be f4 0c f2 bc
       0.3971144 0.12572889 -0.37545198 -0.029547192
000330 a6 ef 31 3c 52 db 57 3e c5 b3 58 bc f0 6f 67 3e
       0.010860359 0.21079758 -0.013226454 0.22601295
000340 ba 2f a5 bd 21 4e 56 3e 84 cb 78 3f 1f 20 29 3f
       -0.08065744 0.20928241 0.9718554 0.6606464
000350 78 fa 03 be d8 94 85 bd 0c 26 5b 3e db 9f e0 bd
       -0.12888515 -0.0652253 0.21401232 -0.1096799
000360 7e 25 5c 3e 67 9f 6e 3e 00 1c 5e 3d 9b 75 b4 bc
       0.21498677 0.23302995 0.05422592 -0.022028735
000370 40 19 4d 3f 11 a7 1c 3f ea d9 15 bc c3 3c cb be
       0.80116653 0.61192423 -0.009146193 -0.39694795
000380 42 b5 60 be ba 50 2f 3d 42 0e b4 be e5 99 b9 3e
       -0.21944144 0.042801596 -0.35167128 0.36250225
000390 b6 c4 5c be c1 20 a7 be bd 77 11 be d3 96 3e 3f
       -0.21559414 -0.32642177 -0.14205833 0.7444889
0003a0 a1 c0 57 be d2 9f 79 3f 0e f0 0b 3d b9 84 70 3e
       -0.21069576 0.9750949 0.03416448 0.2348813
0003b0 8b 32 be bd 1a c6 97 3e 0e e8 b3 3e 3b 80 1b bc
       -0.09286984 0.29643327 0.3513798 -0.009491022
0003c0 4d ea 19 3e e7 0c 3c be af a9 1c 3d 21 2d 3e 3f
       0.15030785 -0.18364297 0.03824776 0.7428761
0003d0 45 1a 88 3e d1 09 00 3e b4 be 46 bf af 61 ab be
       0.26582542 0.12503745 -0.7763474 -0.33472964
0003e0 77 94 01 bc c1 52 12 be 22 0a 6f 3e 47 0e c6 3d
       -0.007908932 -0.1428938 0.23343709 0.09670692
0003f0 05 3e 70 3e 36 df e4 bd b0 3d 3d 3d 78 09 61 3e
       0.23461159 -0.111753866 0.046201408 0.21976268

linear1.bias f4 [256]
000000 6d b5 94 be 27 59 ae bc b0 40 d7 be dd be d3 3e
       -0.29044667 -0.021282746 -0.4204154 0.41356555
000010 9d 0a b3 3e 49 89 4d be ec b0 c9 bd ab d7 be be
       0.34969035 -0.20071901 -0.09848198 -0.37273917
000020 6a f3 b0 3d 0a 13 f6 3d 91 a1 90 3c 13 5c 57 bd
       0.086401775 0.1201535 0.017655166 -0.052578043
000030 62 88 32 be ef ae 8b bd f6 20 ca 3e 00 ec 00 3b
       -0.17434838 -0.06820475 0.39478272 0.0019671917
000040 e1 ed 99 be 06 ab 2a 3d de 14 5a 3d ad 3a 40 3d
       -0.300643 0.041667007 0.053242557 0.046930958
000050 c7 4f 3d 3e 76 6c 30 be 78 e7 a5 bd 5e ee a3 be
       0.18487464 -0.17228875 -0.0810079 -0.32017797
000060 b4 f2 4e 3e 76 93 f5 3d eb ac 2a 3d d8 23 98 be
       0.20209771 0.119910166 0.041668814 -0.29714847
000070 33 1c 19 be a4 5e 59 bd 14 83 88 be 54 a9 2a 3e
       -0.14952163 -0.053068772 -0.26662505 0.16666156
000080 f4 6a fa 3e 55 2c c7 bd 19 19 8d be 90 31 4b 3e
       0.48909724 -0.097252525 -0.2755821 0.19843125
000090 4d ad 3d 3e 8e 15 21 3d 26 3f d4 bc 81 1b 88 be
       0.1852314 0.039327197 -0.025909018 -0.26583484
0000a0 a9 39 a7 be 1d 6e f5 be 6f 5c a2 3e ab 0b 15 be
       -0.3266118 -0.47935572 0.31711146 -0.14555232
0000b0 6c d4 74 3e ed e9 13 3e a9 94 5f 3e 04 43 9f be
       0.23909158 0.14444704 0.21834053 -0.31105816
0000c0 11 96 0d be 6c 62 a3 3e c0 1c e4 be 20 3a 13 be
       -0.13826777 0.31911027 -0.44553185 -0.14377642
0000d0 a1 f5 6e be 46 de b4 3e 78 fa 36 be 84 58 62 be
       -0.23335887 0.3532583 -0.17868984 -0.22104079
0000e0 fc f1 1c be ca 89 af 3d 0c 02 ef 3c 4b c8 b9 be
       -0.15326685 0.08571203 0.02917578 -0.36285624
0000f0 b5 29 db bd 70 72 5b be c6 d9 a6 bd 5e a5 76 be
       -0.10701314 -0.21430373 -0.08147006 -0.2408652
000100 53 f3 4a be b1 0d 0a 3e fe 7e 02 be db 4c a7 bd
       -0.19819383 0.13481785 -0.12743756 -0.08168956
000110 bc 95 75 3e d0 14 9a 3d a3 4f a4 bd e0 6d 3a be
       0.239829 0.07523501 -0.08023002 -0.18205976
000120 44 c2 27 bd 30 50 30 3d 49 63 85 be 62 af 02 be
       -0.04095675 0.043045223 -0.2605231 -0.12762216
000130 5a c9 d9 bd 70 7d 16 be 12 b8 60 bd a9 29 b4 bd
       -0.10634108 -0.14696288 -0.054863043 -0.087970085
000140 f1 d3 07 3d cd 48 05 3e b2 e3 db 3d e3 32 71 be
       0.033161107 0.13016053 0.10736789 -0.23554568
000150 b1 fe 06 3e 18 d5 7d bd 37 b1 7d be bc 05 9e 3e
       0.13183095 -0.0619708 -0.24774633 0.3086375
000160 82 95 53 be 13 d1 ce bb 9f d5 1c be ed 76 4a 3d
       -0.20662501 -0.0063115447 -0.15315865 0.049429823
000170 ab ad 91 3e 26 96 06 3f 9b 94 d0 be cb 40 bc 3e
       0.2845281 0.5257286 -0.40738377 0.36768183
000180 6c 8c de bd fc 6d 7b bc 8a 2f 49 be b6 97 23 3e
       -0.10866627 -0.015346047 -0.19647041 0.15975842
000190 45 68 d7 bd fe 06 0f be 6a 48 2e 3d 6d f1 9d be
       -0.10517935 -0.13967511 0.04254953 -0.30848256
0001a0 2e 1d 3c bd 65 bc 59 be b9 26 9a bd 52 9e 74 be
       -0.045926265 -0.21263273 -0.07526917 -0.2388852
0001b0 a0 c9 2b 3d b2 d8 18 3c f2 87 83 3d ec 3d 91 3e
       0.04194033 0.009329008 0.06422414 0.28367555
0001c0 f9 91 b4 be 7a 0e 91 be 19 6f 4a 3f c7 9b 3c 3d
       -0.35267618 -0.28331357 0.7907577 0.046047
0001d0 fc 68 9a bc a7 d5 87 be 76 01 8e 3e 34 52 0c be
       -0.018848889 -0.2653019 0.2773549 -0.13703233
0001e0 96 b0 8d be 34 b4 17 be e6 6f 90 bc 04 3d ad bd
       -0.27673787 -0.14814836 -0.017631482 -0.084589034
0001f0 4a 7b 4a 3e 8e 51 c4 bb c5 b4 d5 3c 13 99 b9 be
       0.19773594 -0.0059911674 0.026087174 -0.362496
000200 cf ab ca bd ca 5d 4f be ea 41 66 be cf fc f7 3d
       -0.09896051 -0.20250621 -0.22486082 0.12108766
000210 36 64 3d be ff a6 40 3d cf 5a d3 bd e3 1c f3 bc
       -0.18495259 0.04703426 -0.10320055 -0.02967686
000220 36 8e 62 be c3 44 69 be d9 e2 53 be 99 0b 2e 3e
       -0.22124562 -0.22780137 -0.20692004 0.16996612
000230 b6 e6 c1 bd 13 88 45 be 49 a3 c7 be 94 18 ec bd
       -0.09467833 -0.1929019 -0.38991764 -0.115281254
000240 13 13 86 3e 02 6e c1 bd 73 49 08 be 7b e9 91 3d
       0.26186427 -0.094448105 -0.13309269 0.07124611
000250 0d 47 a2 be 9b cf 3d be 7f 90 a9 bd bd d7 8c 3d
       -0.31694832 -0.18536226 -0.082795136 0.06877086
000260 75 4e 76 bd 9b 7d ba bc 59 46 e5 bd 24 3e 37 be
       -0.060133416 -0.022764971 -0.111950584 -0.17894799
000270 5d af 81 be 84 c5 9a 3e c4 f5 24 be d6 4a 9a 3e
       -0.25329104 0.30228817 -0.16109377 0.3013522
000280 f9 b6 fd be 1a ab ea 3e c4 c1 c9 3e ed bf 99 be
       -0.4955366 0.45833665 0.39405644 -0.3002924
000290 51 6e 3a bd da 6e 82 3c 88 4d 0e 3d 9f c9 0c bd
       -0.045515362 0.015921999 0.03474191 -0.03437197
0002a0 f6 fd c5 bc 3b 8b 48 be 1b 8e 23 be 87 2e d8 3c
       -0.02416895 -0.19584362 -0.15972178 0.026389373
0002b0 df 13 3b be e9 37 79 be bc 7f 03 bd 12 77 61 bd
       -0.18269299 -0.24337734 -0.03210424 -0.055045195
0002c0 de 79 d7 bd d9 54 a4 3e e6 f2 1e be ac b9 f1 3d
       -0.10521291 0.32095984 -0.15522346 0.11802992
0002d0 42 3f 6a 3e 8e ec 7c be cd 26 55 be 57 a1 fc 3d
       0.22875693 -0.24699613 -0.20815583 0.12335461
0002e0 26 9f b3 bd 97 6b e6 bd 8d 80 61 be c8 79 87 bc
       -0.087705895 -0.1125099 -0.22021694 -0.016537562
0002f0 bc 4b b6 3f 50 ae e1 be 56 05 8d be 38 13 25 be
       1.4241862 -0.44078302 -0.27543133 -0.16120613
000300 09 d1 bc be 26 55 92 be 17 8b b7 be 1a 10 51 be
       -0.3687823 -0.28580588 -0.35848305 -0.20416299
000310 6f ef fe 3d eb 7f be bd 4b ae 44 bd 07 dc fc 3c
       0.12448012 -0.09301742 -0.04801778 0.030866636
000320 df 56 93 bd 78 05 c7 3d b3 f7 3c 3c b8 8f 2d 3a
       -0.07194304 0.0971784 0.0115336655 0.0006620842
000330 8f d9 fa bc fb da ee bd 07 9e 9a bd 64 7a d4 bd
       -0.030621318 -0.11662861 -0.075496726 -0.10374907
000340 84 82 a3 3e e8 37 b7 be 8e b6 5c 3e 22 06 5e bb
       0.31935513 -0.3578484 0.21554014 -0.0033878167
000350 8f a9 76 be 39 9f 82 bd 32 cd df bd 26 06 68 3e
       -0.24088119 -0.063780256 -0.1092781 0.22658595
000360 d4 8f 85 be eb 99 5e bd 3d 0a 8a be e9 24 a0 be
       -0.26086295 -0.054346006 -0.26960936 -0.3127816
000370 cf 25 52 be 74 59 84 bd 28 b1 68 be 56 ed 61 be
       -0.20522235 -0.06462374 -0.2272383 -0.22063193
000380 75 ba 59 be 37 0c 21 be f0 b5 c8 bd 50 20 83 be
       -0.21262534 -0.15727316 -0.09800327 -0.2561059
000390 4e 72 44 be 55 46 3d bc a8 57 6a be 7a 53 2d be
       -0.19184229 -0.011552413 -0.22885 -0.16926375
0003a0 34 44 8f be 39 f4 d0 3c 9c a4 e9 3d 1b 41 16 3e
       -0.27981722 0.02550708 0.1140835 0.14673273
0003b0 e2 5e 40 be be 6f a2 3e e7 08 57 be 6d fe f3 be
       -0.18786195 0.31725878 -0.2099949 -0.4765505
0003c0 2c be c1 be 40 b6 59 be 8a d9 81 be 64 2b 66 3e
       -0.37840402 -0.21260929 -0.25361282 0.2247749
0003d0 d9 73 d2 3d 75 e4 05 bc bf 76 f4 bd df 0b c7 bc
       0.102760024 -0.008172144 -0.119367115 -0.024297653
0003e0 62 f7 63 3d 16 61 36 be 58 ee d1 3e 2c c7 a6 bd
       0.055655845 -0.17810473 0.41002154 -0.08143458
0003f0 80 55 44 be bc 4f cf 3d 28 97 27 be bd 25 61 be
       -0.1917324 0.1012263 -0.16366255 -0.21987052

linear2.weight f4 [3, 256]
000000 32 ee 96 be 2d 2c db be bb d3 84 ba 2e 4c 27 3f
       -0.29478604 -0.4280714 -0.0010133901 0.65350616
000010 ac 99 84 3e cb 9b ac be 37 99 cc bd da 8f 12 3e
       0.25898492 -0.3371261 -0.09990161 0.14312688
000020 c8 f8 fe ba 3c 26 bf 3d 99 73 a9 3e 57 a8 35 3e
       -0.0019452805 0.093334645 0.33096007 0.17739998
000030 c1 42 0b bd bd a2 7b bc b6 01 56 3e 59 03 22 3e
       -0.03399921 -0.015358624 0.2089909 0.1582159
000040 1b 35 2d bf 7b 74 7d 3c ef 84 3d 3e 40 d1 8d bd
       -0.6765916 0.015469666 0.18507741 -0.06924677
000050 fe 94 89 be 2d d2 0d be 79 8b 15 be 3b 17 83 3b
       -0.26871485 -0.13849707 -0.14603986 0.004000572
000060 7c 02 b6 3e c5 25 b8 3e c3 43 df 3e e4 bb ee 3c
       0.3554877 0.35966316 0.43606386 0.029142328
000070 bc b7 05 3e 09 92 31 bd a8 01 79 3c d6 e8 f0 3d
       0.1305837 -0.04335216 0.015198149 0.1176316
000080 31 0b 81 3e a9 23 79 bd ca 59 96 bd 73 6a ca 3e
       0.2520385 -0.060825024 -0.07341345 0.3953434
000090 a0 ca 3b 3e 6f 78 da bd d8 2d 45 be d5 7b d3 bd
       0.18339014 -0.10667502 -0.19255769 -0.103263535
0000a0 a6 05 56 be 0e 4b 7d bd be 34 c0 3d 2f 26 ee b8
       -0.20900592 -0.061839156 0.0938506 -0.000113558366
0000b0 4f a8 86 3d 0d d2 3d be 4d a3 2d bf a9 01 52 be
       0.06575071 -0.1853716 -0.678273 -0.20508446
0000c0 ec 22 ce bb 09 93 14 3f 08 a0 4a ba 58 23 b8 be
       -0.006290784 0.5803686 -0.0007729535 -0.35964465
0000d0 71 a7 ba bc 1b ee 16 3d 6d f4 0a be b4 25 1a be
       -0.02278492 0.03684817 -0.13569804 -0.15053445
0000e0 cf 40 2b be 45 17 f3 3e 02 a1 a8 3c 88 77 12 bf
       -0.16723941 0.4747869 0.020584587 -0.5721364
0000f0 22 91 a5 bd b1 32 9c be 91 8d 8d 3d 52 d6 f4 bd
       -0.080843225 -0.30507424 0.06911767 -0.11954941
000100 38 88 42 3d cc d4 70 3e a5 d9 09 be dc ca 0f 3e
       0.04749319 0.23518676 -0.13461931 0.14042228
000110 53 f1 a3 3d 6e 8f 9a be df 1e 69 be dd 43 49 bd
       0.08005013 -0.30187553 -0.22765683 -0.049136985
000120 e5 1d 2d 3d 22 3c 35 bd bf c8 d3 bd be 7d 99 3a
       0.042264838 -0.0442468 -0.10341024 0.0011710448
000130 ea f6 b0 be ec 29 bb bd 4e 75 d0 3e 77 48 06 be
       -0.3456338 -0.09138855 0.40714496 -0.1311358
000140 c2 52 1f bf 25 c1 44 3e 78 2e 17 3d 66 88 9c 3e
       -0.62235653 0.19214304 0.03690955 0.30572814
000150 08 d6 5d bd 55 23 41 3e 32 3a 8b bc c0 d5 9b 3e
       -0.054159194 0.18861134 -0.016995523 0.30436516
000160 73 50 e5 bd ff c5 14 3f 1c 1a a3 bd 0c c4 5c 3e
       -0.11196985 0.5811462 -0.07963964 0.21559161
000170 42 6b 02 bf 9e f8 ab 3e 0b e0 c2 3c aa 82 af 3e
       -0.5094491 0.33588117 0.023788473 0.34279376
000180 13 7a 45 be 43 d6 7a 3d 80 ac e3 bc 63 7e 5f 3e
       -0.19284849 0.061239492 -0.027792215 0.21825556
000190 48 4a 58 3e ca c5 ba 3d 98 e8 59 3d 88 af 15 bf
       0.21122086 0.091197565 0.053200334 -0.58470964
0001a0 f5 a0 02 3d 28 8b 2f 3d 2f d1 ba bc 2a 8d 21 be
       0.03189178 0.04285732 -0.022804825 -0.15776506
0001b0 3b b5 a8 bc 21 a1 c7 bc 07 68 a2 3d 4c 3c 99 3d
       -0.02059423 -0.024368824 0.07929998 0.07482204
0001c0 e1 6b 79 be a4 72 e0 bb 3c 25 ab 3e 38 9d 49 bf
       -0.24357559 -0.0068496037 0.33426845 -0.7875552
0001d0 92 a9 e5 be 8b 96 03 3e 48 ad 5a 3d 49 11 27 bd
       -0.44855934 0.12850396 0.05338791 -0.04078797
0001e0 49 29 cf be 3e 64 c8 bd af 0b b3 ba d1 d7 b7 bd
       -0.40461186 -0.09784745 -0.0013660098 -0.089767106
0001f0 6a 30 39 bd 47 a8 91 3e 4f 2c 55 bd 02 5c 04 3f
       -0.045212187 0.28448698 -0.05204421 0.5170289
000200 0d be b3 3e 40 d0 06 bf 68 70 a4 3c c1 f5 27 bf
       0.35105935 -0.52661514 0.02007313 -0.65609366
000210 b1 d4 5a 3c 7b 06 db 3e 27 b6 48 be 69 74 20 be
       0.013356374 0.42778382 -0.19600736 -0.15669407
000220 23 9f a4 3c 1b 98 cf 3c 5b a2 38 bb 39 50 2f 3f
       0.020095414 0.025341084 -0.0028172943 0.68481785
000230 c7 57 21 be f8 06 ad 3d c4 87 e5 3c 03 bb 99 bd
       -0.1575614 0.08448595 0.02801884 -0.07506373
000240 3a 9d 0a 3f 92 e2 ee be 55 76 16 bc 68 39 fd 3b
       0.5414616 -0.46657234 -0.009183486 0.0077277906
000250 ff de 35 3b 78 e3 0f bd a4 be 2e 3d a2 84 fd bc
       0.0027751324 -0.03512904 0.042662278 -0.030947033
000260 04 f2 01 bd 9c f5 86 3e bf 64 3c be a5 6d 13 be
       -0.031724945 0.2635926 -0.18397807 -0.14397295
000270 7e 72 e5 3c 72 50 36 3e 89 7b b9 be e5 8b 33 3e
       0.028008696 0.17804125 -0.36227062 0.17533834
000280 3b 42 d8 bb 8b 8f 60 3e 86 b6 63 3e 0c 27 09 bd
       -0.006599692 0.21929757 0.22237596 -0.033484504
000290 9e a1 40 ba 2b 47 7e bd f6 50 c8 be ce 4d 8a bc
       -0.00073483016 -0.06207959 -0.39124268 -0.016882803
0002a0 09 af c0 3d 9b 59 06 be 64 dc 15 bb 41 1c 8a 3e
       0.09408385 -0.1312012 -0.0022866959 0.2697468
0002b0 68 64 1d ba 6c 3b ee 3c 07 95 1e 3d 94 a3 e5 bc
       -0.00060040364 0.029081069 0.038716342 -0.028032102
0002c0 b4 49 01 bb 03 8a 42 3e 02 c4 8c 3e a1 bf 89 3d
       -0.0019727768 0.1899796 0.27493292 0.067260034
0002d0 ba 12 30 bf 48 7d 18 3c fe 01 da 3e 0c 36 a8 3d
       -0.68778574 0.009307213 0.42579645 0.082134336
0002e0 bc d5 72 be 53 55 34 bb b9 d0 90 3c 9d ba 70 bc
       -0.23714346 -0.0027516678 0.017677652 -0.01469293
0002f0 85 60 da 3e 9f 1b 97 3d f5 cc 07 be 81 a5 28 bd
       0.42651764 0.07378315 -0.13261779 -0.04117346
000300 2a 30 fe be a9 e2 2b be 0d 43 ff 3b 46 00 23 3d
       -0.4964612 -0.16785683 0.0077899755 0.039795183
000310 28 ad cd be 80 3f a6 bb 19 f3 1e bf 9a 88 08 bf
       -0.4017117 -0.0050734878 -0.6208969 -0.5333344
000320 9b 31 ff bd 5c 2d 28 bf b7 2d 96 3d cc 64 de bd
       -0.12460633 -0.6569421 0.07332938 -0.10859069
000330 3e 30 bd bd 27 64 c1 bd 98 d0 31 be 20 45 b2 bd
       -0.09237717 -0.09442931 -0.17364728 -0.08704591
000340 d4 90 cb 3e 5e 96 c4 be 37 9f 0b bf 2b fe ae 3e
       0.39758933 -0.3839597 -0.5453982 0.3417829
000350 65 a9 b6 3c 4e 73 cd 3e a5 6c cd bd 6b e6 7e 3e
       0.02229757 0.40127033 -0.10030488 0.24892585
000360 75 a3 de be 64 f9 77 bd c2 ef 2f 3d 37 07 fa be
       -0.43484083 -0.06054057 0.04295326 -0.4883363
000370 2a 19 c9 bc cc 36 c2 bc e7 6f af 3c 9a 8a 8f bd
       -0.024548132 -0.02370777 0.021415664 -0.07008858
000380 52 71 7f be 7f 40 9e bd 04 12 57 be c0 e8 90 bc
       -0.24945572 -0.077271454 -0.21002966 -0.017689109
000390 76 2e e8 3b d9 d1 c8 bd a7 a5 e0 bd 76 71 32 bd
       0.0070856167 -0.0980565 -0.10969096 -0.043565236
0003a0 3e 4f 64 bd 05 a1 08 be 38 9c c2 3d 66 4d 18 3f
       -0.055739634 -0.13342674 0.095024526 0.594931
0003b0 e8 aa 1a bf 5f b5 4b 3f f7 35 e7 3a b8 6e bb bc
       -0.6041703 0.79573625 0.0017639984 -0.022879943
0003c0 8a 0c 2e 3d 60 d1 55 3c b0 76 e6 b9 89 d5 8a 3b
       0.042492427 0.013050407 -0.00043957448 0.004236881
0003d0 1d bb 42 3e 34 75 92 be 52 6a 75 be 41 0f ea bc
       0.1901669 -0.28605044 -0.23966339 -0.028571727
0003e0 02 8a c9 bd 99 1e dc bc ca be c7 3e 36 6c 64 3d
       -0.09840776 -0.026870059 0.39012748 0.05576726
0003f0 98 b0 64 3e 06 f7 06 be 28 24 d4 3c 5d 3d 47 bf
       0.2233299 -0.1318017 0.025896147 -0.7782801

linear2.bias f4 [3]
000000 65 67 c3 3d bd 66 31 be d8 02 b8 3c
       0.09541205 -0.17324348 0.022462294
