model/model.pth (torch, 17216 bytes, 4 tensors)

linear1.weight f4 [256, 11]
000000 80 16 fe bb 53 33 86 3e f2 87 0f be 48 3b 97 be
       -0.007754147 0.26211032 -0.14016703 -0.29537416
000010 66 7e c5 3d a4 c9 35 3d 79 9e 9f be a8 d7 25 bd
       0.09643249 0.044381753 -0.31175593 -0.04048887
000020 40 5d 25 be 90 64 9e 3e 28 72 94 3e ae ff 53 be
       -0.16148853 0.30936098 0.28993344 -0.20703003
000030 02 11 9e bd 4d 62 c9 3d ea fb 0b 3e ea 36 d1 bd
       -0.07718088 0.098332025 0.13670316 -0.10215552
000040 63 f6 6f 3e fa 0e 04 3e 66 7f 9e 3d af 80 cc 3d
       0.23433833 0.12896338 0.07739143 0.09985482
000050 e1 fd f1 bd 57 d8 66 3e 62 0a ff bd f5 28 91 be
       -0.11816002 0.22543465 -0.12453152 -0.2835156
000060 20 df 12 be 2e 0d c9 3d 47 f3 94 3e af 88 3d 3e
       -0.14342928 0.09816967 0.29091856 0.18509172
000070 3a 2f dc 3d 6e 97 be bc a7 35 c4 bc 61 56 86 bd
       0.10751195 -0.023265567 -0.023951365 -0.06559444
000080 50 34 8d be 20 0a 72 3c e0 3e 6c 3d c4 98 7d be
       -0.27578974 0.014772922 0.05767715 -0.24765307
000090 44 ee e2 bd 76 de 89 3e ae 61 94 be 98 72 45 3d
       -0.11080602 0.26927537 -0.28980774 0.04820499
0000a0 d7 39 16 be 42 90 f8 bd a2 77 7b be 45 75 44 be
       -0.14670502 -0.1213689 -0.24557355 -0.1918536
0000b0 c9 99 62 be 5a a8 25 3e 6e 9f 24 3e 7b a9 e6 3d
       -0.22128977 0.16177502 0.16076443 0.112627946
0000c0 6d c4 2c be cb f0 f8 bc 2e 44 ee bd 1c 95 7d be
       -0.16871805 -0.030388257 -0.11634098 -0.24763912
0000d0 8e 93 7d 3e d1 cd d8 bd 17 a4 73 3d 41 b2 49 bc
       0.24763319 -0.10586131 0.05948266 -0.012310565
0000e0 d9 a4 90 3e 5a d0 b1 bd 9c 9c 4c 3e 63 50 08 be
       0.2825077 -0.08682318 0.19981617 -0.13311915
0000f0 eb 9a 36 be b5 1f 82 3e 93 93 7e 3e 84 8e 87 3e
       -0.17832534 0.25414816 0.24860983 0.26475918
000100 3e d8 98 3d 67 7b 58 3d 3e c8 36 3d 9f b7 50 be
       0.0746312 0.05285206 0.04462456 -0.20382546
000110 a6 d6 ab bc 0a 73 cb 3d 53 82 d1 3d 6d d0 8f 3e
       -0.020976376 0.09934051 0.102299355 0.28088704
000120 b2 9d e0 3d 60 12 5e be d4 02 8a 3e c3 32 33 3d
       0.10967578 -0.21686697 0.26955283 0.043749582
000130 86 b1 61 3e 1e 52 67 be cb 6a 9b bd 92 6b 17 3e
       0.22040376 -0.22589919 -0.075887285 0.14787129
000140 48 bf 81 be 82 b8 2e bc 22 89 a1 3e f1 80 10 3e
       -0.2534125 -0.010664107 0.31549937 0.14111687
000150 b7 08 53 3e b7 85 0c be 65 64 26 3e 38 84 90 be
       0.20608793 -0.13722883 0.16249235 -0.28225875
000160 aa d2 95 be 03 ed 08 3d 52 f0 12 be 2a 14 83 be
       -0.29262286 0.033429157 -0.14349487 -0.2560132
000170 64 92 86 3e e1 a9 9d bd 1d 2d 98 3e 5b 55 11 be
       0.26283562 -0.076984175 0.2972192 -0.14192717
000180 6c 3d 90 be cf 7d 15 3e b3 ac d4 3d 0e 16 89 be
       -0.2817186 0.14598773 0.10384502 -0.2677464
000190 de 53 8a be 4d 5c 38 3e 31 6c b5 bc d9 01 d0 bd
       -0.2701711 0.1800396 -0.022146316 -0.101566024
0001a0 35 78 08 3e a7 d4 5d be dd 63 4c 3e c0 65 91 3d
       0.13327105 -0.21663152 0.1995997 0.070994854
0001b0 cb 87 92 be 03 32 f4 3c f2 60 d0 bd 04 2a 81 be
       -0.28619227 0.029809004 -0.10174741 -0.25227368
0001c0 f7 87 02 be c2 e9 83 3e 46 aa 69 3e bc 99 75 3e
       -0.12747179 0.2576428 0.2281886 0.23984426
0001d0 60 ec 2e 3c 8f 9f dd 3d 57 74 28 3e 23 48 95 bc
       0.010676473 0.10821449 0.1645063 -0.018222874
0001e0 4e d8 3d bc 88 0e 25 3d 90 ed c4 3d ea 4b d5 bd
       -0.011587216 0.04029706 0.09615624 -0.1041487
0001f0 40 72 f2 bc bc e5 8e bd 3a fa 3c 3e 6c b3 ba 3d
       -0.029595494 -0.06977412 0.18454829 0.09116253
000200 48 9e 41 be ec 5c 08 3d 36 dc 86 3e df 27 8b be
       -0.18908036 0.033291742 0.26339883 -0.27178857
000210 ad c7 03 be 97 76 98 bd 48 cd 76 3e 6f 27 63 3e
       -0.12869139 -0.07444494 0.24101746 0.22183011
000220 35 c4 5d bd e1 ca 65 be 21 b5 6a 3e 56 d1 04 3e
       -0.054142196 -0.22440673 0.22920658 0.1297048
000230 ee eb 65 be 2c ec e4 3d 30 ba 4a 3e 2e 40 7d 3e
       -0.22453281 0.11177859 0.19797587 0.24731514
000240 81 82 83 bd cf e9 80 bd b9 ef 72 3e 50 1f 53 3e
       -0.06421376 -0.062945955 0.2372426 0.20617414
000250 a2 fd 27 3e d0 e0 92 be 21 8e 11 3e 10 3f ad bd
       0.16405347 -0.28687143 0.14214374 -0.08459294
000260 c1 87 1a 3e 2b 4f 43 3d 00 46 c3 3d 84 5d 0e be
       0.15090849 0.047682922 0.09534836 -0.13902861
000270 f8 dd bf 3d ed 7a 8f be e8 b4 5b 3d 40 4c a6 bb
       0.09368509 -0.28023472 0.053639323 -0.0050750077
000280 10 20 ed bc 88 21 08 be ee 83 4d be 98 1d 17 be
       -0.028945953 -0.13294041 -0.20069858 -0.14757383
000290 dc 93 7d 3e 3c 99 e6 bc 32 0f 42 3e 9f 42 17 be
       0.24763435 -0.02814924 0.18951109 -0.14771508
0002a0 67 bc 8e 3e 47 2b eb 3c d2 ee 62 3d 71 a8 7d be
       0.27878115 0.02870716 0.055403538 -0.24771287
0002b0 f6 ed 91 3e eb 36 e9 3b bd 68 12 be ca c8 10 3e
       0.28501862 0.0071171424 -0.14297767 0.14139095
0002c0 2b f6 47 be 43 72 c1 3d 3d 38 5a bd b3 47 46 be
       -0.195275 0.09445622 -0.05327629 -0.19363289
0002d0 c0 1b fa bd a3 0a 22 3e 18 dd 50 be 13 29 60 3e
       -0.12212324 0.1582437 -0.2039684 0.21890669
0002e0 b2 49 02 3e 3f dc 60 3e 1c 56 2e 3e 99 b9 22 3e
       0.12723425 0.21959017 0.17025036 0.15891112
0002f0 56 be 34 3e 4a 46 cc 3d d6 f2 64 be 3d 55 a2 bd
       0.17650732 0.09974344 -0.2235826 -0.07926414
000300 10 5b 8d 3d 85 32 7b be 4e 82 74 3e 92 e2 1d 3e
       0.069021344 -0.2453099 0.23877832 0.15418461
000310 b7 7b a8 bd b7 c4 10 be f2 68 01 be 7d 71 cc 3d
       -0.08226722 -0.14137541 -0.1263769 0.09982584
000320 13 8c 8b 3e 2c dd 46 be 26 71 83 3e 44 4e cf bd
       0.27255306 -0.19420308 0.25672263 -0.1012235
000330 12 d0 77 be a8 a1 96 be 61 4b 5b bd ed 9f 59 be
       -0.24200466 -0.2942021 -0.053538684 -0.21252413
000340 6f 65 93 3e e7 54 61 be b6 e9 41 bd cb 90 1b bd
       0.28788325 -0.22005044 -0.047342025 -0.037979882
000350 cc 4c 9a be 1c 5d 40 3e 14 9d af 3d f4 27 5e 3e
       -0.30136716 0.18785518 0.08574882 0.21694928
000360 b5 22 4a be ae 64 db 3c 56 33 85 3e df cb 88 be
       -0.19739802 0.026781406 0.2601573 -0.2671804
000370 6e 20 65 be 19 17 28 be 6e 4c 54 3e d8 fb d4 3d
       -0.22375652 -0.16415061 0.2073228 0.10399598
000380 cc c8 84 3e 9f 12 6e bd 58 18 da bd 4c 6b 88 be
       0.25934446 -0.058123227 -0.106491745 -0.2664436
000390 0b b0 57 3e 26 5f d2 3d fd bb 3d 3e 04 0a ec bc
       0.21063249 0.102720544 0.18528743 -0.02881337
0003a0 3e 3f fa bd b9 25 3a 3e 98 42 32 3e 7a 8f 93 3e
       -0.12219094 0.18178453 0.17408216 0.288204
0003b0 05 58 c5 3c 28 98 d9 3c bd 44 4b 3e e2 74 80 3d
       0.024089823 0.026561812 0.1985044 0.062722936
0003c0 97 87 5c 3e c6 b1 27 3e 5c 40 89 bc bb 6e 84 be
       0.21536098 0.16376409 -0.016754322 -0.2586573
0003d0 8d d2 0c 3d a2 e5 45 bd de 44 83 3e 0d a0 27 be
       0.034380484 -0.048314698 0.2563848 -0.16369648
0003e0 bf c2 6c 3d 49 6d 91 be f1 12 5a 3e 51 03 62 be
       0.05780291 -0.2840369 0.21296288 -0.22071578
0003f0 e8 e8 34 be 2b 4e 17 be a9 b1 18 3d 6b bd f9 bc
       -0.17666972 -0.14775912 0.037278805 -0.03048583

linear1.bias f4 [256]
000000 d9 54 dc bd 5d 2c 8e be 82 7e 7c 3e 2d e2 08 be
       -0.10758371 -0.27768221 0.24657634 -0.13367529
000010 69 c8 95 be 77 78 8a 3e 7f 6c 9f 3e 79 b6 7d 3e
       -0.29254463 0.27045032 0.31137463 0.24776639
000020 3b c8 4c bd d2 cd c3 3c 3a 40 88 be 44 6d 9a be
       -0.049995642 0.023901854 -0.266115 -0.30161488
000030 bc 99 4d 3e 73 1a b1 bd 4d 97 30 be b8 00 41 be
       0.20078176 -0.08647623 -0.17245217 -0.1884793
000040 af fd 79 3c 26 3a 65 3e 6c 0f 07 be c1 61 2a 3e
       0.015258237 0.22385463 -0.13189477 0.16638853
000050 fa d5 89 3e 57 1d 59 3e a6 18 80 3e 40 96 5f be
       0.26921064 0.21202599 0.25018805 -0.2183466
000060 b1 19 68 3e 2d f8 65 3d 4c a8 3a 3e 84 0e 9c 3e
       0.2266605 0.056144882 0.18228263 0.30479825
000070 40 0e 4c be dd 2b 46 3d f5 67 19 be be bf f3 bd
       -0.19927311 0.048381675 -0.14981063 -0.11901806
000080 d7 20 c1 bd 6f 3d 2d be 1c 7f 8f be b5 c7 61 bd
       -0.09430092 -0.16917966 -0.28026664 -0.055122096
000090 21 a0 07 be aa 0b 52 3e 38 ac 1f be 26 59 d3 3d
       -0.13244678 0.20512262 -0.1559304 0.10319738
0000a0 fa 25 6b be b1 27 b4 bd 28 2d 0a bd 09 79 60 be
       -0.22963706 -0.08796633 -0.03373447 -0.21921171
0000b0 6a 8f 06 3e 77 ac 41 be ee 05 e9 3d 7f 70 e4 3c
       0.13140646 -0.18913446 0.11378084 0.027885674
0000c0 79 d4 aa bc 83 21 be 3d 20 8e 99 be 68 64 8c 3d
       -0.020853268 0.092837356 -0.29991245 0.068550885
0000d0 dc 27 67 be 92 74 90 3e 31 37 dc bd 2a e5 eb bd
       -0.22573799 0.28213936 -0.107527144 -0.11518319
0000e0 da c9 04 be f0 ee a5 ba 0f cf 91 be 5f 11 8e bd
       -0.12967625 -0.001265971 -0.28478286 -0.06936907
0000f0 55 42 5b be 38 f1 46 be ce 32 27 3e 49 82 98 be
       -0.21412022 -0.19427955 0.16327974 -0.297869
000100 5a 68 5f 3e bf 9b 85 3e b3 23 27 3d 4c 9f d5 bd
       0.2181715 0.26095387 0.04080553 -0.10430774
000110 50 02 e1 3d 4b 99 6f be 61 c6 8c be 54 a5 fd bd
       0.10986769 -0.2339832 -0.274951 -0.123850495
000120 f4 d3 63 3e 76 d5 60 3e e7 9e d5 3d 51 20 22 3e
       0.22248822 0.21956429 0.10430699 0.1583264
000130 db ec 5b be ca d6 30 3c ac ec 53 be 79 32 8c be
       -0.21477072 0.010793397 -0.20695752 -0.27382258
000140 e9 ce ee 3c 4f 1d 61 3d ad 86 75 bd ac 67 b2 bd
       0.029151397 0.05495959 -0.05994289 -0.0871118
000150 27 d8 c4 bc b3 fc 85 3e c3 cc 8b bd 75 48 08 be
       -0.02402885 0.26169357 -0.068261646 -0.1330889
000160 04 12 04 3e ff 2e 2d be e5 c1 8e bd 73 cb 24 bd
       0.12897497 -0.16912459 -0.06970576 -0.040233087
000170 ec b9 02 3e 4f be 2f 3e 1f 1f aa bd aa f7 92 3e
       0.12766236 0.1716244 -0.08306717 0.28704578
000180 24 9c c3 bd 71 91 74 be ad 5e 8a be 48 7e 25 be
       -0.09551266 -0.23883606 -0.27025357 -0.16161454
000190 24 46 0b bd 49 cf 75 be 93 83 82 3e 64 cc d5 bd
       -0.03400244 -0.24004854 0.25491008 -0.10439375
0001a0 b4 be 94 be b3 c5 d2 3d 0c 39 85 3e 61 88 49 bc
       -0.29051745 0.102916144 0.26020086 -0.012300582
0001b0 65 59 9d 3e a8 4e 3d 3e 3c 82 c4 3d 69 fb e8 3d
       0.30732265 0.18487036 0.09595153 0.11376078
0001c0 f9 c8 62 3e c8 e3 69 bd c9 52 ed 3d f7 ed 80 be
       0.22146977 -0.057101995 0.11588056 -0.25181553
0001d0 d9 30 c6 3d e9 19 94 bd a1 00 8d be f0 f3 b6 b9
       0.09677286 -0.072315045 -0.27539542 -0.00034895493
0001e0 62 87 89 be da 91 c8 3d 5d 0e 95 bc 12 0d 98 be
       -0.268611 0.09793444 -0.018195326 -0.29697472
0001f0 e0 58 64 bc 35 63 00 be 89 ba 9e be 7d be 57 be
       -0.013937205 -0.12537844 -0.3100169 -0.2106876
000200 1b 0a 96 be 8a 5e 37 be 7a d9 25 be 98 7b 99 3e
       -0.29304585 -0.17907158 -0.16196242 0.29977107
000210 6c f6 52 be 38 e3 3f 3e d0 dd 89 bd d4 f9 1a be
       -0.20601815 0.18739021 -0.067317605 -0.15134364
000220 11 db 8f 3e ac aa 3a 3b cb e2 3a 3e 42 12 2a be
       0.28096822 0.0028483076 0.18250577 -0.16608527
000230 e8 f5 6b 3e 32 eb 4a 3c ee 7a e7 bd 56 8a 30 3e
       0.23043025 0.0123851765 -0.11302744 0.17240271
000240 22 d4 6e be 5b 50 8e 3e 91 92 29 be a0 13 61 3c
       -0.2332311 0.2779568 -0.16559817 0.013737589
000250 f4 a1 99 be d8 ab bf bd b9 56 83 3e 27 53 e1 bc
       -0.30006373 -0.093589485 0.25652102 -0.02750547
000260 bf 5a 91 be 02 d2 00 3c 2a 70 48 3d 03 55 17 3e
       -0.28389546 0.00786257 0.048935093 0.14778523
000270 44 18 42 3e 55 46 73 be 9a 1f 67 3e 46 5a 2a 3c
       0.18954569 -0.23757298 0.22570649 0.010397499
000280 ed e2 13 be 43 d3 06 be 50 97 03 3e 06 c5 8c 3e
       -0.14442034 -0.13166527 0.1285069 0.27494067
000290 f0 fc 69 be 69 9d 41 bd b0 24 31 3e e9 8e cc 3d
       -0.22850394 -0.04726926 0.17299151 0.099881954
0002a0 71 7d 7f 3e b4 1b be bd 24 21 9a bd ea 30 4a 3e
       0.24950196 -0.09282628 -0.07525852 0.19745222
0002b0 9a 7f 6a be e8 0c fc bd 18 15 7a be e4 08 a0 3c
       -0.22900239 -0.12307149 -0.24422109 0.01953549
0002c0 60 b7 99 be 0a 0f c4 3d ee a4 c6 bd 88 05 8e 3e
       -0.30022717 0.09573181 -0.096994266 0.27738595
0002d0 a0 1c 0a be 33 80 cb 3c e8 b9 3a be b5 44 7d 3e
       -0.13487482 0.024841404 -0.1823498 0.24733241
0002e0 e9 74 c9 bd a4 33 3f be ae 11 86 be 12 a3 85 3e
       -0.09836752 -0.18672043 -0.26185364 0.26100975
0002f0 99 b3 c8 3d e7 ce 8f 3d 9b c5 90 3e a0 ee 84 be
       0.097998805 0.07021885 0.2827576 -0.25963306
000300 e6 2d 83 3e 59 c1 29 3d 0b 14 f3 3d 06 72 56 be
       0.25620955 0.041444156 0.11869057 -0.20941934
000310 a6 86 0d be fd 31 1e 3e 9c e9 09 3c 06 23 f5 bd
       -0.13820896 0.15448757 0.008417513 -0.11969571
000320 c8 83 97 be 88 f4 f4 bd 8c 49 ea bc 2f 7e 91 bc
       -0.2959273 -0.11960703 -0.028599523 -0.017760364
000330 40 4e 04 be 27 1d 1e be f6 f6 92 3e 25 7a 33 be
       -0.12920475 -0.15440808 0.2870404 -0.17527063
000340 1a ec a4 bd c9 f0 0e 3e 55 ae 85 3e 24 87 af 3d
       -0.08052845 0.1395904 0.26109567 0.08570698
000350 d0 ca 38 bc 97 64 6b 3e 27 a0 d3 bd 89 ba d3 bd
       -0.011278823 0.2298759 -0.10333281 -0.10338313
000360 e5 e4 0e be 91 d9 07 3c 48 ac 3f be 40 e1 2b bc
       -0.13954504 0.008291618 -0.18718064 -0.0104907155
000370 a5 61 15 bd 2c e4 3b 3e b7 a6 a7 bc 00 e7 58 3c
       -0.036470074 0.1834876 -0.020465238 0.013238668
000380 27 ed 83 be 57 9e 8a bd d8 72 4b 3e 46 28 5c be
       -0.2576687 -0.06768482 0.19868028 -0.21499738
000390 36 42 06 3e b6 7d 11 bd 05 a0 2a 3e ed 73 08 3d
       0.13111195 -0.035520278 0.16662605 0.03331368
0003a0 24 02 1f be 59 49 80 be b0 47 8c 3e 31 c6 83 3e
       -0.1552816 -0.2505596 0.27398443 0.25737146
0003b0 52 4b 2d 3a d3 99 73 be 94 f4 3c 3c 68 96 89 3d
       0.000661065 -0.23789148 0.011532921 0.06718141
0003c0 64 21 18 3e 35 82 91 be c3 d9 5d 3e 8e 6a 4a 3e
       0.14856488 -0.28419653 0.21665101 0.1976721
0003d0 a1 bf 2e be 96 d2 b4 bd 34 cf 2f 3d 0b 77 96 be
       -0.17065288 -0.088292286 0.042922214 -0.29387698
0003e0 9e b8 49 be d9 3c 9b 3c 2f 41 21 be ce c1 85 be
       -0.19699332 0.018949913 -0.15747522 -0.26124424
0003f0 1e 9f 0f be fc 19 14 be 68 01 15 3c 22 fc fb bc
       -0.14025542 -0.14463037 0.009094574 -0.030759875

linear2.weight f4 [3, 256]
000000 8e 2b a9 3c e6 94 d3 bc 5f 3d 85 3d d6 95 45 bd
       0.020650651 -0.025827836 0.06505846 -0.048238598
000010 34 ab a3 3c df 0e 8b bd 2c 3c 8c bd c6 29 6c 3d
       0.019979097 -0.06789946 -0.068474144 0.057657026
000020 8f c8 ea 3b 6a 88 71 b9 bd 09 24 3d 6b 8f 13 bd
       0.0071650217 -0.00023034369 0.04004835 -0.036025446
000030 cd 7d 3a bc 1f 80 b6 3c 1c 8d a3 bc 9b 3d 21 bc
       -0.011382532 0.02227789 -0.019964747 -0.009841348
000040 e5 2a 42 bd 30 41 02 3d 49 1b 5c 3d ff 70 d2 bc
       -0.04740419 0.03180045 0.05373696 -0.025688646
000050 06 80 0a bd 5f 1e 02 bd 2a 9b 9d bd 9c a0 9c 3c
       -0.0338135 -0.031767245 -0.07695611 0.019119553
000060 6b 74 3e 3d f2 95 e9 3c 65 ef 05 3c 99 57 6b bd
       0.046497744 0.028513882 0.008174752 -0.057456587
000070 ef 32 89 bd 33 b3 8a bc 86 02 07 3d 8d b9 5b bd
       -0.06699168 -0.016931152 0.03296139 -0.053643752
000080 cb 54 c4 3c a0 67 73 bd 19 36 bc bc f3 88 53 bd
       0.023966214 -0.059424996 -0.022975015 -0.051644277
000090 e9 68 82 3c dd b2 03 3d 04 57 fe 3c 93 90 90 bc
       0.015919166 0.032153 0.031047352 -0.017647063
0000a0 86 8a 9e bd 20 80 16 bd c1 aa ec 3c d1 fa 26 3d
       -0.07741265 -0.036743283 0.028890016 0.04076654
0000b0 80 42 cf 3c 59 64 77 bd cf 56 06 3d 85 e8 1a 3d
       0.025300264 -0.060398433 0.03279763 0.037819404
0000c0 35 85 15 bd 0e f7 35 3d 0a 62 e2 bb ea 65 39 bd
       -0.03650399 0.044425063 -0.00690866 -0.04526321
0000d0 27 5a 0c bc 8a ed c2 bc d6 cc 7a 3d e8 b7 9a bc
       -0.008566416 -0.023794908 0.061230503 -0.018886521
0000e0 ca 29 5b bd 34 cf 5a bd 58 f4 a2 3c 12 5f db bc
       -0.05350665 -0.05342026 0.019891903 -0.026778731
0000f0 63 53 fd 3b 7b 2d 23 3d ca 28 39 3c 25 2d 25 bd
       0.0077308877 0.039838295 0.011301229 -0.040326256
000100 dd 6c 8d bd 05 69 0d 3c b5 ba d7 3c 7e 6a 0b 3c
       -0.0690553 0.008630996 0.026334146 0.008509276
000110 0c 7a dc bc af a9 88 bd a0 89 3b 3c 42 cd 15 3c
       -0.026913665 -0.066729896 0.011446387 0.009143176
000120 9d 86 85 3b fc 48 7d bd 1b a1 b3 bb 40 7a f8 bb
       0.004074885 -0.06183718 -0.0054818518 -0.0075829327
000130 30 d2 36 bc 18 a8 03 bd b0 02 33 3d 91 51 bb ba
       -0.011158511 -0.03214273 0.043703735 -0.0014291276
000140 74 b9 8e bc db 16 6f 3c ba a5 1c bd 23 f8 d4 3c
       -0.017422415 0.0145928515 -0.038243987 0.025997227
000150 4d 54 4a bd c4 97 60 3d 03 43 a3 bc b3 af ee 3c
       -0.0493968 0.054832235 -0.019929415 0.029136514
000160 fb a7 b4 bc d4 56 1c bc bf 1e 01 bd 97 0e a2 3c
       -0.022052756 -0.009542186 -0.031523462 0.019782348
000170 be 5b 27 3d 76 17 53 bc 52 98 e8 3c ca 4c 34 bd
       0.040858977 -0.0128840115 0.028392944 -0.044018544
000180 61 52 ac bb 52 49 05 bd 80 e5 f8 bc 46 c7 3c bd
       -0.005258844 -0.032540627 -0.030382872 -0.04608848
000190 6b 1a 88 bd 44 6f 6b bd a8 89 5b bd 48 70 5f bd
       -0.06645664 -0.057479158 -0.053598076 -0.05455044
0001a0 9d 06 15 bd 3c 14 1b bd cc 3d a8 bc 5c 63 de bc
       -0.03638326 -0.037861094 -0.02053728 -0.027146988
0001b0 32 ef ec bc b1 af ad bc cf 3f 07 3c c5 a4 15 3d
       -0.028922651 -0.02120194 0.008254959 0.03653409
0001c0 ef 88 ba bb af cc 3b bb 37 41 bf 3c f8 0f e0 3c
       -0.0056925933 -0.0028655936 0.023346527 0.027351364
0001d0 97 57 55 bd 4b 30 92 3c 70 c4 97 bc aa da 84 bd
       -0.052085485 0.017845294 -0.018526286 -0.06487019
0001e0 33 fa de bc e9 4d 03 bc 34 63 1e bd 5d ad 47 3d
       -0.027218914 -0.008014181 -0.038668826 0.048749316
0001f0 38 14 a1 3c a8 c6 10 bc 71 70 1f 3c 3f ef 6a 3d
       0.019662961 -0.008836426 0.009731398 0.05735707
000200 40 b1 50 bb 31 17 97 bd 85 ca 0c bd 93 8a 74 bd
       -0.003184393 -0.0737747 -0.034372825 -0.059702467
000210 da 6e d5 bc 18 d7 47 ba 2e 7f e7 3b 0a 7f 5d bd
       -0.026053835 -0.0007623299 0.0070647215 -0.054076232
000220 cc 86 3f 3d 4c f6 96 bb 09 f5 5d bd 94 59 97 3d
       0.04675941 -0.0046069976 -0.05418876 0.073901325
000230 f8 7c 87 bd 0b 6f 8f bd 70 80 1c 3d b0 57 9d bb
       -0.06615633 -0.07003602 0.038208425 -0.004801713
000240 6c 0a 85 bd 68 a6 23 bd e5 9d 3e bd 9a 0f 56 bd
       -0.064961284 -0.03995362 -0.0465373 -0.052260973
000250 3c 6b 1b bd ab 29 98 3c 25 07 3d bd 85 83 8e 3d
       -0.037944064 0.018574556 -0.04614939 0.06958679
000260 14 9a b7 3c a7 37 ee ba 16 71 b5 3a b4 2e 6b bd
       0.022412337 -0.0018174545 0.0013842906 -0.057417586
000270 5a 3b 29 3d 1c 5b 96 bc 02 ad 55 3c b9 c6 f1 3c
       0.041316368 -0.018353991 0.013041737 0.029513704
000280 1d 21 a3 bd 0a c8 02 bc 68 22 a6 bd 9f 02 ff 3b
       -0.079653 -0.007982263 -0.08112031 0.007782295
000290 34 c3 88 bd 53 2c e7 3c b8 90 9e 3c 37 26 d3 3b
       -0.06677857 0.028219378 0.019356117 0.0064437645
0002a0 8b 0e 39 bc 89 8e a3 bc 8d 91 12 bb 49 11 ca 3c
       -0.011294971 -0.019965427 -0.0022364587 0.024666445
0002b0 e6 c1 97 bb 2a fa b1 3c 11 e6 36 3d a2 77 0a bc
       -0.004631269 0.021725733 0.044653002 -0.008451374
0002c0 1a 4c 06 3d a1 ba a3 bd e6 4f a8 3c 7a 27 88 bd
       0.03278742 -0.07994581 0.020545911 -0.066481546
0002d0 90 52 a9 3b 9c cc 00 bd 49 b4 8a bd c8 89 75 3d
       0.005167313 -0.03144513 -0.06772668 0.05994585
0002e0 6d bf 81 bc 46 20 21 bd 1b 6b ef bb 9b 5a 65 bd
       -0.01583835 -0.03933742 -0.007306469 -0.05599461
0002f0 31 1d 95 3c 31 f9 b3 3c de 04 dd 3b 3f 5f 07 3d
       0.018202396 0.02196941 0.006744965 0.033049818
000300 b9 04 6a bd f8 31 8b 3d 4f d4 80 bd 11 55 f9 bc
       -0.05713341 0.0679664 -0.06290495 -0.03043607
000310 5c a8 6e bd e1 6c 4c bb 46 3a cf bc ab 16 b0 3c
       -0.05826603 -0.0031192827 -0.025296342 0.021495184
000320 6f a9 dc 3b 58 06 64 3d 99 03 93 3c 0a 80 78 3c
       0.0067340652 0.055670112 0.017946051 0.015167246
000330 1f 7b ba bb 0d 8c 81 bd a0 c0 c2 3c bc 34 a2 3c
       -0.0056909467 -0.06325541 0.023773491 0.019800536
000340 bd e1 4c bd f6 da d2 bc cb f6 ba 3c 12 4f 15 3c
       -0.05001997 -0.025739174 0.022822758 0.00911309
000350 a6 0d a6 bd c4 75 e1 bc ad 1c d5 3c 4b 18 64 bd
       -0.08108072 -0.027521975 0.02601465 -0.05568723
000360 53 8c fb bb 30 63 d6 bc 92 7a 91 ba 19 41 a2 bd
       -0.00767664 -0.026170343 -0.0011099151 -0.07922573
000370 66 56 98 3b f4 27 0b bd 43 77 a3 bc f3 6c 89 bd
       0.0046489714 -0.03397365 -0.01995433 -0.067102335
000380 77 81 5a 3c 65 bc 25 3d db 21 b1 3b 08 6e 70 bd
       0.013336531 0.04046287 0.005405647 -0.058698684
000390 e9 a7 ea 3c 13 be 51 3c 93 aa 86 bc b1 08 7a bc
       0.028644519 0.012801665 -0.016438758 -0.015260861
0003a0 6c 23 19 3d f5 f3 38 3d 2c 62 e3 bc ef 01 c9 3c
       0.037387297 0.04515453 -0.027756773 0.024537055
0003b0 cb ea 48 3d 35 20 49 3d ef 99 3b bd f9 85 5a bd
       0.04905204 0.04910298 -0.0458011 -0.053350423
0003c0 2e 4c 2d 3d 80 68 7f bb 0d cf f0 3c 60 1b 8d bd
       0.04230898 -0.00389722 0.029395605 -0.06889987
0003d0 51 21 80 3b fc 29 84 bd ef b1 e3 3c 08 3a 95 bd
       0.0039102216 -0.064533204 0.027794806 -0.07286459
0003e0 1e e9 c6 bc 42 4a 6e bd 92 e2 4d bc 20 71 5c 3b
       -0.02428108 -0.058176287 -0.012566226 0.0033636764
0003f0 b8 f7 dc bc dc 8a 57 bd 33 e2 cb 3c a3 b8 1d 3d
       -0.02697359 -0.05262266 0.024888134 0.03850616

linear2.bias f4 [3]
000000 a0 78 07 bd cc 11 5a bc 42 1d ad 3c
       -0.03307402 -0.013309907 0.021132115
